…
2020-03-07 18:03:54.421580: I tensorflow/compiler/xla/service/service.cc:176]   StreamExecutor device (0): GeForce GTX 1080 Ti, Compute Capability 6.1
2020-03-07 18:03:54.421670: I tensorflow/core/common_runtime/gpu/gpu_device.cc:1096] Device interconnect StreamExecutor with strength 1 edge matrix:
2020-03-07 18:03:54.421680: I tensorflow/core/common_runtime/gpu/gpu_device.cc:1102]      
Model: "model_1"
_________________________________________________________________
Layer (type)                 Output Shape              Param #   
=================================================================
input_1 (InputLayer)         (None, 187, 1)            0         
_________________________________________________________________
conv1d_1 (Conv1D)            (None, 183, 16)           96        
_________________________________________________________________
conv1d_2 (Conv1D)            (None, 179, 16)           1296      
_________________________________________________________________
max_pooling1d_1 (MaxPooling1 (None, 89, 16)            0         
_________________________________________________________________
dropout_1 (Dropout)          (None, 89, 16)            0         
_________________________________________________________________
conv1d_3 (Conv1D)            (None, 87, 32)            1568      
_________________________________________________________________
conv1d_4 (Conv1D)            (None, 85, 32)            3104      
_________________________________________________________________
max_pooling1d_2 (MaxPooling1 (None, 42, 32)            0         
_________________________________________________________________
dropout_2 (Dropout)          (None, 42, 32)            0         
_________________________________________________________________
conv1d_5 (Conv1D)            (None, 40, 32)            3104      
_________________________________________________________________
conv1d_6 (Conv1D)            (None, 38, 32)            3104      
_________________________________________________________________
max_pooling1d_3 (MaxPooling1 (None, 19, 32)            0         
_________________________________________________________________
dropout_3 (Dropout)          (None, 19, 32)            0         
_________________________________________________________________
conv1d_7 (Conv1D)            (None, 17, 256)           24832     
_________________________________________________________________
conv1d_8 (Conv1D)            (None, 15, 256)           196864    
_________________________________________________________________
global_max_pooling1d_1 (Glob (None, 256)               0         
_________________________________________________________________
dropout_4 (Dropout)          (None, 256)               0         
_________________________________________________________________
dense_1 (Dense)              (None, 64)                16448     
_________________________________________________________________
dense_2 (Dense)              (None, 64)                4160      
_________________________________________________________________
dense_3_mitbih (Dense)       (None, 5)                 325       
=================================================================
Total params: 254,901
Trainable params: 254,901
Non-trainable params: 0
_________________________________________________________________
Train on 78798 samples, validate on 8756 samples
Epoch 1/1000
 - 120s - loss: 0.3363 - acc: 0.9042 - val_loss: 0.2040 - val_acc: 0.9448

Epoch 00001: val_acc improved from -inf to 0.94484, saving model to baseline_cnn_mitbih.h5
…
