…
2020-03-20 16:13:43.803531: I tensorflow/stream_executor/platform/default/dso_loader.cc:44] Successfully opened dynamic library libcublas.so.10
2020-03-20 16:13:44.298055: I tensorflow/stream_executor/platform/default/dso_loader.cc:44] Successfully opened dynamic library libcudnn.so.7
2020-03-20 16:13:46.177229: W tensorflow/stream_executor/gpu/redzone_allocator.cc:312] Not found: ./bin/ptxas not found
Relying on driver to perform ptx compilation. This message will be only logged once.
Model: "model_1"
_________________________________________________________________
Layer (type)                 Output Shape              Param #   
=================================================================
input_1 (InputLayer)         (None, 187, 1)            0         
_________________________________________________________________
conv1d_1 (Conv1D)            (None, 183, 16)           96        
_________________________________________________________________
conv1d_2 (Conv1D)            (None, 179, 16)           1296      
_________________________________________________________________
max_pooling1d_1 (MaxPooling1 (None, 89, 16)            0         
_________________________________________________________________
dropout_1 (Dropout)          (None, 89, 16)            0         
_________________________________________________________________
conv1d_3 (Conv1D)            (None, 87, 32)            1568      
_________________________________________________________________
conv1d_4 (Conv1D)            (None, 85, 32)            3104      
_________________________________________________________________
max_pooling1d_2 (MaxPooling1 (None, 42, 32)            0         
_________________________________________________________________
dropout_2 (Dropout)          (None, 42, 32)            0         
_________________________________________________________________
conv1d_5 (Conv1D)            (None, 40, 32)            3104      
_________________________________________________________________
conv1d_6 (Conv1D)            (None, 38, 32)            3104      
_________________________________________________________________
max_pooling1d_3 (MaxPooling1 (None, 19, 32)            0         
_________________________________________________________________
dropout_3 (Dropout)          (None, 19, 32)            0         
_________________________________________________________________
conv1d_7 (Conv1D)            (None, 17, 256)           24832     
_________________________________________________________________
conv1d_8 (Conv1D)            (None, 15, 256)           196864    
_________________________________________________________________
global_max_pooling1d_1 (Glob (None, 256)               0         
_________________________________________________________________
dropout_4 (Dropout)          (None, 256)               0         
_________________________________________________________________
dense_1 (Dense)              (None, 64)                16448     
_________________________________________________________________
dense_2 (Dense)              (None, 64)                4160      
_________________________________________________________________
dense_3_ptbdb (Dense)        (None, 1)                 65        
=================================================================
Total params: 254,641
Trainable params: 254,641
Non-trainable params: 0
_________________________________________________________________
Train on 10476 samples, validate on 1165 samples
Epoch 1/1000
 - 7s - loss: 0.5032 - acc: 0.7543 - val_loss: 0.4993 - val_acc: 0.7442

Epoch 00001: val_acc improved from -inf to 0.74421, saving model to baseline_cnn_ptbdb.h5
…
