…
2020-03-20 12:15:43.277431: I tensorflow/stream_executor/platform/default/dso_loader.cc:44] Successfully opened dynamic library libcudnn.so.7
2020-03-20 12:15:44.958089: W tensorflow/stream_executor/gpu/redzone_allocator.cc:312] Not found: ./bin/ptxas not found
Relying on driver to perform ptx compilation. This message will be only logged once.
Model: "model_1"
__________________________________________________________________________________________________
Layer (type)                    Output Shape         Param #     Connected to                     
==================================================================================================
input_1 (InputLayer)            (None, 187, 1)       0                                            
__________________________________________________________________________________________________
conv1d_1 (Conv1D)               (None, 183, 32)      192         input_1[0][0]                    
__________________________________________________________________________________________________
conv1d_2 (Conv1D)               (None, 183, 32)      5152        conv1d_1[0][0]                   
__________________________________________________________________________________________________
activation_1 (Activation)       (None, 183, 32)      0           conv1d_2[0][0]                   
__________________________________________________________________________________________________
conv1d_3 (Conv1D)               (None, 183, 32)      5152        activation_1[0][0]               
__________________________________________________________________________________________________
add_1 (Add)                     (None, 183, 32)      0           conv1d_3[0][0]                   
                                                                 conv1d_1[0][0]                   
__________________________________________________________________________________________________
activation_2 (Activation)       (None, 183, 32)      0           add_1[0][0]                      
__________________________________________________________________________________________________
max_pooling1d_1 (MaxPooling1D)  (None, 90, 32)       0           activation_2[0][0]               
__________________________________________________________________________________________________
conv1d_4 (Conv1D)               (None, 90, 32)       5152        max_pooling1d_1[0][0]            
__________________________________________________________________________________________________
activation_3 (Activation)       (None, 90, 32)       0           conv1d_4[0][0]                   
__________________________________________________________________________________________________
conv1d_5 (Conv1D)               (None, 90, 32)       5152        activation_3[0][0]               
__________________________________________________________________________________________________
add_2 (Add)                     (None, 90, 32)       0           conv1d_5[0][0]                   
                                                                 max_pooling1d_1[0][0]            
__________________________________________________________________________________________________
activation_4 (Activation)       (None, 90, 32)       0           add_2[0][0]                      
__________________________________________________________________________________________________
max_pooling1d_2 (MaxPooling1D)  (None, 43, 32)       0           activation_4[0][0]               
__________________________________________________________________________________________________
conv1d_6 (Conv1D)               (None, 43, 32)       5152        max_pooling1d_2[0][0]            
__________________________________________________________________________________________________
activation_5 (Activation)       (None, 43, 32)       0           conv1d_6[0][0]                   
__________________________________________________________________________________________________
conv1d_7 (Conv1D)               (None, 43, 32)       5152        activation_5[0][0]               
__________________________________________________________________________________________________
add_3 (Add)                     (None, 43, 32)       0           conv1d_7[0][0]                   
                                                                 max_pooling1d_2[0][0]            
__________________________________________________________________________________________________
activation_6 (Activation)       (None, 43, 32)       0           add_3[0][0]                      
__________________________________________________________________________________________________
max_pooling1d_3 (MaxPooling1D)  (None, 20, 32)       0           activation_6[0][0]               
__________________________________________________________________________________________________
conv1d_8 (Conv1D)               (None, 20, 32)       5152        max_pooling1d_3[0][0]            
__________________________________________________________________________________________________
activation_7 (Activation)       (None, 20, 32)       0           conv1d_8[0][0]                   
__________________________________________________________________________________________________
conv1d_9 (Conv1D)               (None, 20, 32)       5152        activation_7[0][0]               
__________________________________________________________________________________________________
add_4 (Add)                     (None, 20, 32)       0           conv1d_9[0][0]                   
                                                                 max_pooling1d_3[0][0]            
__________________________________________________________________________________________________
activation_8 (Activation)       (None, 20, 32)       0           add_4[0][0]                      
__________________________________________________________________________________________________
max_pooling1d_4 (MaxPooling1D)  (None, 8, 32)        0           activation_8[0][0]               
__________________________________________________________________________________________________
conv1d_10 (Conv1D)              (None, 8, 32)        5152        max_pooling1d_4[0][0]            
__________________________________________________________________________________________________
activation_9 (Activation)       (None, 8, 32)        0           conv1d_10[0][0]                  
__________________________________________________________________________________________________
conv1d_11 (Conv1D)              (None, 8, 32)        5152        activation_9[0][0]               
__________________________________________________________________________________________________
add_5 (Add)                     (None, 8, 32)        0           conv1d_11[0][0]                  
                                                                 max_pooling1d_4[0][0]            
__________________________________________________________________________________________________
activation_10 (Activation)      (None, 8, 32)        0           add_5[0][0]                      
__________________________________________________________________________________________________
max_pooling1d_5 (MaxPooling1D)  (None, 2, 32)        0           activation_10[0][0]              
__________________________________________________________________________________________________
flatten_1 (Flatten)             (None, 64)           0           max_pooling1d_5[0][0]            
__________________________________________________________________________________________________
dense_1 (Dense)                 (None, 32)           2080        flatten_1[0][0]                  
__________________________________________________________________________________________________
activation_11 (Activation)      (None, 32)           0           dense_1[0][0]                    
__________________________________________________________________________________________________
dense_2 (Dense)                 (None, 32)           1056        activation_11[0][0]              
__________________________________________________________________________________________________
dense_3 (Dense)                 (None, 5)            165         dense_2[0][0]                    
__________________________________________________________________________________________________
softmax_1 (Softmax)             (None, 5)            0           dense_3[0][0]                    
==================================================================================================
Total params: 55,013
Trainable params: 55,013
Non-trainable params: 0
__________________________________________________________________________________________________
Train on 78798 samples, validate on 8756 samples
Epoch 1/1000
 - 36s - loss: 0.1776 - acc: 0.9497 - val_loss: 0.1120 - val_acc: 0.9695
…
